_________________________________________________________________
Layer (type)                 Output Shape              Param #   
=================================================================
input (InputLayer)           (None, 50)                0         
_________________________________________________________________
embedding (Embedding)        (None, 50, 100)           1000100   
_________________________________________________________________
bidirectional_1 (Bidirection (None, 1024)              2510848   
_________________________________________________________________
dense_1 (Dense)              (None, 1024)              1049600   
_________________________________________________________________
dense_2 (Dense)              (None, 512)               524800    
_________________________________________________________________
dropout_1 (Dropout)          (None, 512)               0         
_________________________________________________________________
prediction (Dense)           (None, 1)                 513       
=================================================================
Total params: 5,085,861
Trainable params: 5,085,861
Non-trainable params: 0
_________________________________________________________________
Train on 3354 samples, validate on 372 samples
Epoch 1/10

 128/3354 [>.............................] - ETA: 1:50 - loss: 0.9163 - acc: 0.5391
 256/3354 [=>............................] - ETA: 1:20 - loss: 1.5442 - acc: 0.4375
…
