_________________________________________________________________
Layer (type)                 Output Shape              Param #   
=================================================================
input (InputLayer)           (None, 50)                0         
_________________________________________________________________
embedding (Embedding)        (None, 50, 100)           1000100   
_________________________________________________________________
bidirectional_1 (Bidirection (None, 512)               731136    
_________________________________________________________________
dense_1 (Dense)              (None, 1024)              525312    
_________________________________________________________________
dense_2 (Dense)              (None, 512)               524800    
_________________________________________________________________
dropout_1 (Dropout)          (None, 512)               0         
_________________________________________________________________
prediction (Dense)           (None, 3)                 1539      
=================================================================
Total params: 2,782,887
Trainable params: 2,782,887
Non-trainable params: 0
_________________________________________________________________
Train on 3894 samples, validate on 432 samples
Epoch 1/10

 128/3894 [..............................] - ETA: 1:23 - loss: 17.3106 - acc: 0.3281
 256/3894 [>.............................] - ETA: 49s - loss: 16.9213 - acc: 0.4023 
…
