_________________________________________________________________
Layer (type)                 Output Shape              Param #   
=================================================================
input (InputLayer)           (None, 50)                0         
_________________________________________________________________
embedding (Embedding)        (None, 50, 200)           2000200   
_________________________________________________________________
bidirectional_1 (Bidirection (None, 512)               935936    
_________________________________________________________________
dense_1 (Dense)              (None, 1024)              525312    
_________________________________________________________________
dense_2 (Dense)              (None, 512)               524800    
_________________________________________________________________
dropout_1 (Dropout)          (None, 512)               0         
_________________________________________________________________
prediction (Dense)           (None, 1)                 513       
=================================================================
Total params: 3,986,761
Trainable params: 3,986,761
Non-trainable params: 0
_________________________________________________________________
Train on 3354 samples, validate on 372 samples
Epoch 1/10

 128/3354 [>.............................] - ETA: 1:19 - loss: 0.8578 - acc: 0.5156
 256/3354 [=>............................] - ETA: 51s - loss: 1.0838 - acc: 0.5391 
…
