_________________________________________________________________
Layer (type)                 Output Shape              Param #   
=================================================================
input (InputLayer)           (None, 81)                0         
_________________________________________________________________
embedding (Embedding)        (None, 81, 10)            80000     
_________________________________________________________________
bidirectional_1 (Bidirection (None, 256)               142336    
_________________________________________________________________
transform (Dense)            (None, 512)               131584    
_________________________________________________________________
prediction (Dense)           (None, 3)                 1539      
=================================================================
Total params: 355,459
Trainable params: 355,459
Non-trainable params: 0
_________________________________________________________________
Train on 3894 samples, validate on 432 samples
Epoch 1/100

 128/3894 [..............................] - ETA: 59s - loss: 1.0985 - acc: 0.4219
 256/3894 [>.............................] - ETA: 33s - loss: 1.0941 - acc: 0.4219
…
