_________________________________________________________________
Layer (type)                 Output Shape              Param #   
=================================================================
input (InputLayer)           (None, 50)                0         
_________________________________________________________________
embedding (Embedding)        (None, 50, 100)           1000100   
_________________________________________________________________
bidirectional_1 (Bidirection (None, 512)               731136    
_________________________________________________________________
dense_1 (Dense)              (None, 1024)              525312    
_________________________________________________________________
dense_2 (Dense)              (None, 512)               524800    
_________________________________________________________________
dropout_1 (Dropout)          (None, 512)               0         
_________________________________________________________________
prediction (Dense)           (None, 1)                 513       
=================================================================
Total params: 2,781,861
Trainable params: 2,781,861
Non-trainable params: 0
_________________________________________________________________
Train on 12231 samples, validate on 1359 samples
Epoch 1/10

  128/12231 [..............................] - ETA: 5:23 - loss: 0.8489 - acc: 0.5391
  256/12231 [..............................] - ETA: 3:12 - loss: 0.9748 - acc: 0.5547
…
11904/12231 [============================>.] - ETA: 1s - loss: 0.1383 - acc: 0.9537
12032/12231 [============================>.] - ETA: 1s - loss: 0.1388 - acc: 0.9535
12160/12231 [============================>.] - ETA: 0s - loss: 0.1395 - acc: 0.9535
12231/12231 [==============================] - 72s 6ms/step - loss: 0.1391 - acc: 0.9537 - val_loss: 0.4152 - val_acc: 0.8683
_________________________________________________________________
Layer (type)                 Output Shape              Param #   
=================================================================
input (InputLayer)           (None, 50)                0         
_________________________________________________________________
embedding (Embedding)        (None, 50, 200)           2000200   
_________________________________________________________________
bidirectional_1 (Bidirection (None, 512)               935936    
_________________________________________________________________
dense_1 (Dense)              (None, 1024)              525312    
_________________________________________________________________
dense_2 (Dense)              (None, 512)               524800    
_________________________________________________________________
dropout_1 (Dropout)          (None, 512)               0         
_________________________________________________________________
prediction (Dense)           (None, 1)                 513       
=================================================================
Total params: 3,986,761
Trainable params: 3,986,761
Non-trainable params: 0
_________________________________________________________________
_________________________________________________________________
Layer (type)                 Output Shape              Param #   
=================================================================
input (InputLayer)           (None, 50)                0         
_________________________________________________________________
embedding (Embedding)        (None, 50, 100)           1000100   
_________________________________________________________________
bidirectional_1 (Bidirection (None, 512)               731136    
_________________________________________________________________
dense_1 (Dense)              (None, 1024)              525312    
_________________________________________________________________
dense_2 (Dense)              (None, 512)               524800    
_________________________________________________________________
dropout_1 (Dropout)          (None, 512)               0         
_________________________________________________________________
prediction (Dense)           (None, 1)                 513       
=================================================================
Total params: 2,781,861
Trainable params: 2,781,861
Non-trainable params: 0
_________________________________________________________________
model loaded
the affordable care act is terrible 
_________________________________________________________________
Layer (type)                 Output Shape              Param #   
=================================================================
input (InputLayer)           (None, 50)                0         
_________________________________________________________________
embedding (Embedding)        (None, 50, 100)           1000100   
_________________________________________________________________
bidirectional_1 (Bidirection (None, 512)               731136    
_________________________________________________________________
dense_1 (Dense)              (None, 1024)              525312    
_________________________________________________________________
dense_2 (Dense)              (None, 512)               524800    
_________________________________________________________________
dropout_1 (Dropout)          (None, 512)               0         
_________________________________________________________________
prediction (Dense)           (None, 1)                 513       
=================================================================
Total params: 2,781,861
Trainable params: 2,781,861
Non-trainable params: 0
_________________________________________________________________
model loaded
the affordable care act is terrible 
_________________________________________________________________
Layer (type)                 Output Shape              Param #   
=================================================================
input (InputLayer)           (None, 50)                0         
_________________________________________________________________
embedding (Embedding)        (None, 50, 100)           1000100   
_________________________________________________________________
bidirectional_1 (Bidirection (None, 512)               731136    
_________________________________________________________________
dense_1 (Dense)              (None, 1024)              525312    
_________________________________________________________________
dense_2 (Dense)              (None, 512)               524800    
_________________________________________________________________
dropout_1 (Dropout)          (None, 512)               0         
_________________________________________________________________
prediction (Dense)           (None, 1)                 513       
=================================================================
Total params: 2,781,861
Trainable params: 2,781,861
Non-trainable params: 0
_________________________________________________________________
model loaded
the affordable care act is terrible 
_________________________________________________________________
Layer (type)                 Output Shape              Param #   
=================================================================
input (InputLayer)           (None, 50)                0         
_________________________________________________________________
embedding (Embedding)        (None, 50, 100)           1000100   
_________________________________________________________________
bidirectional_1 (Bidirection (None, 512)               731136    
_________________________________________________________________
dense_1 (Dense)              (None, 1024)              525312    
_________________________________________________________________
dense_2 (Dense)              (None, 512)               524800    
_________________________________________________________________
dropout_1 (Dropout)          (None, 512)               0         
_________________________________________________________________
prediction (Dense)           (None, 1)                 513       
=================================================================
Total params: 2,781,861
Trainable params: 2,781,861
Non-trainable params: 0
_________________________________________________________________
model loaded
_________________________________________________________________
Layer (type)                 Output Shape              Param #   
=================================================================
input (InputLayer)           (None, 50)                0         
_________________________________________________________________
embedding (Embedding)        (None, 50, 100)           1000100   
_________________________________________________________________
bidirectional_1 (Bidirection (None, 512)               731136    
_________________________________________________________________
dense_1 (Dense)              (None, 1024)              525312    
_________________________________________________________________
dense_2 (Dense)              (None, 512)               524800    
_________________________________________________________________
dropout_1 (Dropout)          (None, 512)               0         
_________________________________________________________________
prediction (Dense)           (None, 1)                 513       
=================================================================
Total params: 2,781,861
Trainable params: 2,781,861
Non-trainable params: 0
_________________________________________________________________
model loaded
the affordable care act is terrible 
_________________________________________________________________
Layer (type)                 Output Shape              Param #   
=================================================================
input (InputLayer)           (None, 50)                0         
_________________________________________________________________
embedding (Embedding)        (None, 50, 100)           1000100   
_________________________________________________________________
bidirectional_1 (Bidirection (None, 512)               731136    
_________________________________________________________________
dense_1 (Dense)              (None, 1024)              525312    
_________________________________________________________________
dense_2 (Dense)              (None, 512)               524800    
_________________________________________________________________
dropout_1 (Dropout)          (None, 512)               0         
_________________________________________________________________
prediction (Dense)           (None, 1)                 513       
=================================================================
Total params: 2,781,861
Trainable params: 2,781,861
Non-trainable params: 0
_________________________________________________________________
model loaded
the affordable care act is terrible 
_________________________________________________________________
Layer (type)                 Output Shape              Param #   
=================================================================
input (InputLayer)           (None, 50)                0         
_________________________________________________________________
embedding (Embedding)        (None, 50, 100)           1000100   
_________________________________________________________________
bidirectional_1 (Bidirection (None, 512)               731136    
_________________________________________________________________
dense_1 (Dense)              (None, 1024)              525312    
_________________________________________________________________
dense_2 (Dense)              (None, 512)               524800    
_________________________________________________________________
dropout_1 (Dropout)          (None, 512)               0         
_________________________________________________________________
prediction (Dense)           (None, 1)                 513       
=================================================================
Total params: 2,781,861
Trainable params: 2,781,861
Non-trainable params: 0
_________________________________________________________________
model loaded
the affordable care act is terrible 
the affordable care act is terrible 
_________________________________________________________________
Layer (type)                 Output Shape              Param #   
=================================================================
input (InputLayer)           (None, 50)                0         
_________________________________________________________________
embedding (Embedding)        (None, 50, 100)           1000100   
_________________________________________________________________
bidirectional_1 (Bidirection (None, 512)               731136    
_________________________________________________________________
dense_1 (Dense)              (None, 1024)              525312    
_________________________________________________________________
dense_2 (Dense)              (None, 512)               524800    
_________________________________________________________________
dropout_1 (Dropout)          (None, 512)               0         
_________________________________________________________________
prediction (Dense)           (None, 1)                 513       
=================================================================
Total params: 2,781,861
Trainable params: 2,781,861
Non-trainable params: 0
_________________________________________________________________
model loaded
the affordable care act is terrible 
_________________________________________________________________
Layer (type)                 Output Shape              Param #   
=================================================================
input (InputLayer)           (None, 50)                0         
_________________________________________________________________
embedding (Embedding)        (None, 50, 100)           1000100   
_________________________________________________________________
bidirectional_1 (Bidirection (None, 512)               731136    
_________________________________________________________________
dense_1 (Dense)              (None, 1024)              525312    
_________________________________________________________________
dense_2 (Dense)              (None, 512)               524800    
_________________________________________________________________
dropout_1 (Dropout)          (None, 512)               0         
_________________________________________________________________
prediction (Dense)           (None, 1)                 513       
=================================================================
Total params: 2,781,861
Trainable params: 2,781,861
Non-trainable params: 0
_________________________________________________________________
model loaded
the affordable care act is terrible 
the affordable care act is terrible 
_________________________________________________________________
Layer (type)                 Output Shape              Param #   
=================================================================
input (InputLayer)           (None, 50)                0         
_________________________________________________________________
embedding (Embedding)        (None, 50, 100)           1000100   
_________________________________________________________________
bidirectional_1 (Bidirection (None, 512)               731136    
_________________________________________________________________
dense_1 (Dense)              (None, 1024)              525312    
_________________________________________________________________
dense_2 (Dense)              (None, 512)               524800    
_________________________________________________________________
dropout_1 (Dropout)          (None, 512)               0         
_________________________________________________________________
prediction (Dense)           (None, 1)                 513       
=================================================================
Total params: 2,781,861
Trainable params: 2,781,861
Non-trainable params: 0
_________________________________________________________________
model loaded
_________________________________________________________________
Layer (type)                 Output Shape              Param #   
=================================================================
input (InputLayer)           (None, 50)                0         
_________________________________________________________________
embedding (Embedding)        (None, 50, 100)           1000100   
_________________________________________________________________
bidirectional_1 (Bidirection (None, 512)               731136    
_________________________________________________________________
dense_1 (Dense)              (None, 1024)              525312    
_________________________________________________________________
dense_2 (Dense)              (None, 512)               524800    
_________________________________________________________________
dropout_1 (Dropout)          (None, 512)               0         
_________________________________________________________________
prediction (Dense)           (None, 1)                 513       
=================================================================
Total params: 2,781,861
Trainable params: 2,781,861
Non-trainable params: 0
_________________________________________________________________
model loaded
_________________________________________________________________
Layer (type)                 Output Shape              Param #   
=================================================================
input (InputLayer)           (None, 50)                0         
_________________________________________________________________
embedding (Embedding)        (None, 50, 100)           1000100   
_________________________________________________________________
bidirectional_1 (Bidirection (None, 512)               731136    
_________________________________________________________________
dense_1 (Dense)              (None, 1024)              525312    
_________________________________________________________________
dense_2 (Dense)              (None, 512)               524800    
_________________________________________________________________
dropout_1 (Dropout)          (None, 512)               0         
_________________________________________________________________
prediction (Dense)           (None, 1)                 513       
=================================================================
Total params: 2,781,861
Trainable params: 2,781,861
Non-trainable params: 0
_________________________________________________________________
model loaded
_________________________________________________________________
Layer (type)                 Output Shape              Param #   
=================================================================
input (InputLayer)           (None, 50)                0         
_________________________________________________________________
embedding (Embedding)        (None, 50, 100)           1000100   
_________________________________________________________________
bidirectional_1 (Bidirection (None, 512)               731136    
_________________________________________________________________
dense_1 (Dense)              (None, 1024)              525312    
_________________________________________________________________
dense_2 (Dense)              (None, 512)               524800    
_________________________________________________________________
dropout_1 (Dropout)          (None, 512)               0         
_________________________________________________________________
prediction (Dense)           (None, 1)                 513       
=================================================================
Total params: 2,781,861
Trainable params: 2,781,861
Non-trainable params: 0
_________________________________________________________________
model loaded
the affordable care act is terrible 
[[   0    0    0    0    0    0    0    0    0    0    0    0    0    0
     0    0    0    0    0    0    0    0    0    0    0    0    0    0
     0    0    0    0    0    0    0    0    0    0    0    0    0    0
     3    1  501   40  375   15 1999    4]]
_________________________________________________________________
Layer (type)                 Output Shape              Param #   
=================================================================
input (InputLayer)           (None, 50)                0         
_________________________________________________________________
embedding (Embedding)        (None, 50, 100)           1000100   
_________________________________________________________________
bidirectional_1 (Bidirection (None, 512)               731136    
_________________________________________________________________
dense_1 (Dense)              (None, 1024)              525312    
_________________________________________________________________
dense_2 (Dense)              (None, 512)               524800    
_________________________________________________________________
dropout_1 (Dropout)          (None, 512)               0         
_________________________________________________________________
prediction (Dense)           (None, 1)                 513       
=================================================================
Total params: 2,781,861
Trainable params: 2,781,861
Non-trainable params: 0
_________________________________________________________________
model loaded
_________________________________________________________________
Layer (type)                 Output Shape              Param #   
=================================================================
input (InputLayer)           (None, 50)                0         
_________________________________________________________________
embedding (Embedding)        (None, 50, 100)           1000100   
_________________________________________________________________
bidirectional_1 (Bidirection (None, 512)               731136    
_________________________________________________________________
dense_1 (Dense)              (None, 1024)              525312    
_________________________________________________________________
dense_2 (Dense)              (None, 512)               524800    
_________________________________________________________________
dropout_1 (Dropout)          (None, 512)               0         
_________________________________________________________________
prediction (Dense)           (None, 1)                 513       
=================================================================
Total params: 2,781,861
Trainable params: 2,781,861
Non-trainable params: 0
_________________________________________________________________
computing
[[0.50050855]]
model loaded
_________________________________________________________________
Layer (type)                 Output Shape              Param #   
=================================================================
input (InputLayer)           (None, 50)                0         
_________________________________________________________________
embedding (Embedding)        (None, 50, 100)           1000100   
_________________________________________________________________
bidirectional_1 (Bidirection (None, 512)               731136    
_________________________________________________________________
dense_1 (Dense)              (None, 1024)              525312    
_________________________________________________________________
dense_2 (Dense)              (None, 512)               524800    
_________________________________________________________________
dropout_1 (Dropout)          (None, 512)               0         
_________________________________________________________________
prediction (Dense)           (None, 1)                 513       
=================================================================
Total params: 2,781,861
Trainable params: 2,781,861
Non-trainable params: 0
_________________________________________________________________
computing
[[0.50200295]]
model loaded
_________________________________________________________________
Layer (type)                 Output Shape              Param #   
=================================================================
input (InputLayer)           (None, 50)                0         
_________________________________________________________________
embedding (Embedding)        (None, 50, 100)           1000100   
_________________________________________________________________
bidirectional_1 (Bidirection (None, 512)               731136    
_________________________________________________________________
dense_1 (Dense)              (None, 1024)              525312    
_________________________________________________________________
dense_2 (Dense)              (None, 512)               524800    
_________________________________________________________________
dropout_1 (Dropout)          (None, 512)               0         
_________________________________________________________________
prediction (Dense)           (None, 1)                 513       
=================================================================
Total params: 2,781,861
Trainable params: 2,781,861
Non-trainable params: 0
_________________________________________________________________
computing
[[0.49996668]]
model loaded
the affordable care act is terrible 
[[   0    0    0    0    0    0    0    0    0    0    0    0    0    0
     0    0    0    0    0    0    0    0    0    0    0    0    0    0
     0    0    0    0    0    0    0    0    0    0    0    0    0    0
     3    1  501   40  375   15 1999    4]]
_________________________________________________________________
Layer (type)                 Output Shape              Param #   
=================================================================
input (InputLayer)           (None, 50)                0         
_________________________________________________________________
embedding (Embedding)        (None, 50, 100)           1000100   
_________________________________________________________________
bidirectional_1 (Bidirection (None, 512)               731136    
_________________________________________________________________
dense_1 (Dense)              (None, 1024)              525312    
_________________________________________________________________
dense_2 (Dense)              (None, 512)               524800    
_________________________________________________________________
dropout_1 (Dropout)          (None, 512)               0         
_________________________________________________________________
prediction (Dense)           (None, 1)                 513       
=================================================================
Total params: 2,781,861
Trainable params: 2,781,861
Non-trainable params: 0
_________________________________________________________________
computing
[[0.49837127]]
model loaded
the affordable care act is terrible 
[[   0    0    0    0    0    0    0    0    0    0    0    0    0    0
     0    0    0    0    0    0    0    0    0    0    0    0    0    0
     0    0    0    0    0    0    0    0    0    0    0    0    0    0
     3    1  501   40  375   15 1999    4]]
_________________________________________________________________
Layer (type)                 Output Shape              Param #   
=================================================================
input (InputLayer)           (None, 50)                0         
_________________________________________________________________
embedding (Embedding)        (None, 50, 100)           1000100   
_________________________________________________________________
bidirectional_1 (Bidirection (None, 512)               731136    
_________________________________________________________________
dense_1 (Dense)              (None, 1024)              525312    
_________________________________________________________________
dense_2 (Dense)              (None, 512)               524800    
_________________________________________________________________
dropout_1 (Dropout)          (None, 512)               0         
_________________________________________________________________
prediction (Dense)           (None, 1)                 513       
=================================================================
Total params: 2,781,861
Trainable params: 2,781,861
Non-trainable params: 0
_________________________________________________________________
computing
[[0.49900326]]
model loaded
_________________________________________________________________
Layer (type)                 Output Shape              Param #   
=================================================================
input (InputLayer)           (None, 50)                0         
_________________________________________________________________
embedding (Embedding)        (None, 50, 100)           1000100   
_________________________________________________________________
bidirectional_1 (Bidirection (None, 512)               731136    
_________________________________________________________________
dense_1 (Dense)              (None, 1024)              525312    
_________________________________________________________________
dense_2 (Dense)              (None, 512)               524800    
_________________________________________________________________
dropout_1 (Dropout)          (None, 512)               0         
_________________________________________________________________
prediction (Dense)           (None, 1)                 513       
=================================================================
Total params: 2,781,861
Trainable params: 2,781,861
Non-trainable params: 0
_________________________________________________________________
computing
[[0.04403111]]
model loaded
the affordable care act is terrible 
[[   0    0    0    0    0    0    0    0    0    0    0    0    0    0
     0    0    0    0    0    0    0    0    0    0    0    0    0    0
…
     0    0    0    0    0    0    0    0    0    0    0    0    0    0
     3    1  501   40  375   15 1999    4]]
the terrible affordable care act is terrible 
[[   0    0    0    0    0    0    0    0    0    0    0    0    0    0
     0    0    0    0    0    0    0    0    0    0    0    0    0    0
     0    0    0    0    0    0    0    0    0    0    0    0    0    3
     1 1999  501   40  375   15 1999    4]]
_________________________________________________________________
Layer (type)                 Output Shape              Param #   
=================================================================
input (InputLayer)           (None, 50)                0         
_________________________________________________________________
embedding (Embedding)        (None, 50, 100)           1000100   
_________________________________________________________________
bidirectional_1 (Bidirection (None, 512)               731136    
_________________________________________________________________
dense_1 (Dense)              (None, 1024)              525312    
_________________________________________________________________
dense_2 (Dense)              (None, 512)               524800    
_________________________________________________________________
dropout_1 (Dropout)          (None, 512)               0         
_________________________________________________________________
prediction (Dense)           (None, 1)                 513       
=================================================================
Total params: 2,781,861
Trainable params: 2,781,861
Non-trainable params: 0
_________________________________________________________________
computing
[[0.04403111]]
model loaded
_________________________________________________________________
Layer (type)                 Output Shape              Param #   
=================================================================
input (InputLayer)           (None, 50)                0         
_________________________________________________________________
embedding (Embedding)        (None, 50, 100)           1000100   
_________________________________________________________________
bidirectional_1 (Bidirection (None, 512)               731136    
_________________________________________________________________
dense_1 (Dense)              (None, 1024)              525312    
_________________________________________________________________
dense_2 (Dense)              (None, 512)               524800    
_________________________________________________________________
dropout_1 (Dropout)          (None, 512)               0         
_________________________________________________________________
prediction (Dense)           (None, 1)                 513       
=================================================================
Total params: 2,781,861
Trainable params: 2,781,861
Non-trainable params: 0
_________________________________________________________________
computing
[[0.04403111]]
model loaded
_________________________________________________________________
Layer (type)                 Output Shape              Param #   
=================================================================
input (InputLayer)           (None, 50)                0         
_________________________________________________________________
embedding (Embedding)        (None, 50, 100)           1000100   
_________________________________________________________________
bidirectional_1 (Bidirection (None, 512)               731136    
_________________________________________________________________
dense_1 (Dense)              (None, 1024)              525312    
_________________________________________________________________
dense_2 (Dense)              (None, 512)               524800    
_________________________________________________________________
dropout_1 (Dropout)          (None, 512)               0         
_________________________________________________________________
prediction (Dense)           (None, 1)                 513       
=================================================================
Total params: 2,781,861
Trainable params: 2,781,861
Non-trainable params: 0
_________________________________________________________________
model loaded
_________________________________________________________________
Layer (type)                 Output Shape              Param #   
=================================================================
input (InputLayer)           (None, 50)                0         
_________________________________________________________________
embedding (Embedding)        (None, 50, 100)           1000100   
_________________________________________________________________
bidirectional_1 (Bidirection (None, 512)               731136    
_________________________________________________________________
dense_1 (Dense)              (None, 1024)              525312    
_________________________________________________________________
dense_2 (Dense)              (None, 512)               524800    
_________________________________________________________________
dropout_1 (Dropout)          (None, 512)               0         
_________________________________________________________________
prediction (Dense)           (None, 1)                 513       
=================================================================
Total params: 2,781,861
Trainable params: 2,781,861
Non-trainable params: 0
_________________________________________________________________
model loaded
_________________________________________________________________
Layer (type)                 Output Shape              Param #   
=================================================================
input (InputLayer)           (None, 50)                0         
_________________________________________________________________
embedding (Embedding)        (None, 50, 100)           1000100   
_________________________________________________________________
bidirectional_1 (Bidirection (None, 512)               731136    
_________________________________________________________________
dense_1 (Dense)              (None, 1024)              525312    
_________________________________________________________________
dense_2 (Dense)              (None, 512)               524800    
_________________________________________________________________
dropout_1 (Dropout)          (None, 512)               0         
_________________________________________________________________
prediction (Dense)           (None, 1)                 513       
=================================================================
Total params: 2,781,861
Trainable params: 2,781,861
Non-trainable params: 0
_________________________________________________________________
model loaded
_________________________________________________________________
Layer (type)                 Output Shape              Param #   
=================================================================
input (InputLayer)           (None, 50)                0         
_________________________________________________________________
embedding (Embedding)        (None, 50, 100)           1000100   
_________________________________________________________________
bidirectional_1 (Bidirection (None, 512)               731136    
_________________________________________________________________
dense_1 (Dense)              (None, 1024)              525312    
_________________________________________________________________
dense_2 (Dense)              (None, 512)               524800    
_________________________________________________________________
dropout_1 (Dropout)          (None, 512)               0         
_________________________________________________________________
prediction (Dense)           (None, 1)                 513       
=================================================================
Total params: 2,781,861
Trainable params: 2,781,861
Non-trainable params: 0
_________________________________________________________________
model loaded
_________________________________________________________________
Layer (type)                 Output Shape              Param #   
=================================================================
input (InputLayer)           (None, 50)                0         
_________________________________________________________________
embedding (Embedding)        (None, 50, 100)           1000100   
_________________________________________________________________
bidirectional_1 (Bidirection (None, 512)               731136    
_________________________________________________________________
dense_1 (Dense)              (None, 1024)              525312    
_________________________________________________________________
dense_2 (Dense)              (None, 512)               524800    
_________________________________________________________________
dropout_1 (Dropout)          (None, 512)               0         
_________________________________________________________________
prediction (Dense)           (None, 1)                 513       
=================================================================
Total params: 2,781,861
Trainable params: 2,781,861
Non-trainable params: 0
_________________________________________________________________
model loaded
_________________________________________________________________
Layer (type)                 Output Shape              Param #   
=================================================================
input (InputLayer)           (None, 50)                0         
_________________________________________________________________
embedding (Embedding)        (None, 50, 100)           1000100   
_________________________________________________________________
bidirectional_1 (Bidirection (None, 512)               731136    
_________________________________________________________________
dense_1 (Dense)              (None, 1024)              525312    
_________________________________________________________________
dense_2 (Dense)              (None, 512)               524800    
_________________________________________________________________
dropout_1 (Dropout)          (None, 512)               0         
_________________________________________________________________
prediction (Dense)           (None, 1)                 513       
=================================================================
Total params: 2,781,861
Trainable params: 2,781,861
Non-trainable params: 0
_________________________________________________________________
model loaded
_________________________________________________________________
Layer (type)                 Output Shape              Param #   
=================================================================
input (InputLayer)           (None, 50)                0         
_________________________________________________________________
embedding (Embedding)        (None, 50, 100)           1000100   
_________________________________________________________________
bidirectional_1 (Bidirection (None, 512)               731136    
_________________________________________________________________
dense_1 (Dense)              (None, 1024)              525312    
_________________________________________________________________
dense_2 (Dense)              (None, 512)               524800    
_________________________________________________________________
dropout_1 (Dropout)          (None, 512)               0         
_________________________________________________________________
prediction (Dense)           (None, 1)                 513       
=================================================================
Total params: 2,781,861
Trainable params: 2,781,861
Non-trainable params: 0
_________________________________________________________________
computing
[[0.04403111]]
model loaded
_________________________________________________________________
Layer (type)                 Output Shape              Param #   
=================================================================
input (InputLayer)           (None, 50)                0         
_________________________________________________________________
embedding (Embedding)        (None, 50, 100)           1000100   
_________________________________________________________________
bidirectional_1 (Bidirection (None, 512)               731136    
_________________________________________________________________
dense_1 (Dense)              (None, 1024)              525312    
_________________________________________________________________
dense_2 (Dense)              (None, 512)               524800    
_________________________________________________________________
dropout_1 (Dropout)          (None, 512)               0         
_________________________________________________________________
prediction (Dense)           (None, 1)                 513       
=================================================================
Total params: 2,781,861
Trainable params: 2,781,861
Non-trainable params: 0
_________________________________________________________________
model loaded
_________________________________________________________________
Layer (type)                 Output Shape              Param #   
=================================================================
input (InputLayer)           (None, 50)                0         
_________________________________________________________________
embedding (Embedding)        (None, 50, 100)           1000100   
_________________________________________________________________
bidirectional_1 (Bidirection (None, 512)               731136    
_________________________________________________________________
dense_1 (Dense)              (None, 1024)              525312    
_________________________________________________________________
dense_2 (Dense)              (None, 512)               524800    
_________________________________________________________________
dropout_1 (Dropout)          (None, 512)               0         
_________________________________________________________________
prediction (Dense)           (None, 1)                 513       
=================================================================
Total params: 2,781,861
Trainable params: 2,781,861
Non-trainable params: 0
_________________________________________________________________
model loaded
_________________________________________________________________
Layer (type)                 Output Shape              Param #   
=================================================================
input (InputLayer)           (None, 50)                0         
_________________________________________________________________
embedding (Embedding)        (None, 50, 100)           1000100   
_________________________________________________________________
bidirectional_1 (Bidirection (None, 512)               731136    
_________________________________________________________________
dense_1 (Dense)              (None, 1024)              525312    
_________________________________________________________________
dense_2 (Dense)              (None, 512)               524800    
_________________________________________________________________
dropout_1 (Dropout)          (None, 512)               0         
_________________________________________________________________
prediction (Dense)           (None, 1)                 513       
=================================================================
Total params: 2,781,861
Trainable params: 2,781,861
Non-trainable params: 0
_________________________________________________________________
model loaded
_________________________________________________________________
Layer (type)                 Output Shape              Param #   
=================================================================
input (InputLayer)           (None, 50)                0         
_________________________________________________________________
embedding (Embedding)        (None, 50, 100)           1000100   
_________________________________________________________________
bidirectional_1 (Bidirection (None, 512)               731136    
_________________________________________________________________
dense_1 (Dense)              (None, 1024)              525312    
_________________________________________________________________
dense_2 (Dense)              (None, 512)               524800    
_________________________________________________________________
dropout_1 (Dropout)          (None, 512)               0         
_________________________________________________________________
prediction (Dense)           (None, 1)                 513       
=================================================================
Total params: 2,781,861
Trainable params: 2,781,861
Non-trainable params: 0
_________________________________________________________________
model loaded
_________________________________________________________________
Layer (type)                 Output Shape              Param #   
=================================================================
input (InputLayer)           (None, 50)                0         
_________________________________________________________________
embedding (Embedding)        (None, 50, 100)           1000100   
_________________________________________________________________
bidirectional_1 (Bidirection (None, 512)               731136    
_________________________________________________________________
dense_1 (Dense)              (None, 1024)              525312    
_________________________________________________________________
dense_2 (Dense)              (None, 512)               524800    
_________________________________________________________________
dropout_1 (Dropout)          (None, 512)               0         
_________________________________________________________________
prediction (Dense)           (None, 1)                 513       
=================================================================
Total params: 2,781,861
Trainable params: 2,781,861
Non-trainable params: 0
_________________________________________________________________
model loaded
_________________________________________________________________
Layer (type)                 Output Shape              Param #   
=================================================================
input (InputLayer)           (None, 50)                0         
_________________________________________________________________
embedding (Embedding)        (None, 50, 100)           1000100   
_________________________________________________________________
bidirectional_1 (Bidirection (None, 512)               731136    
_________________________________________________________________
dense_1 (Dense)              (None, 1024)              525312    
_________________________________________________________________
dense_2 (Dense)              (None, 512)               524800    
_________________________________________________________________
dropout_1 (Dropout)          (None, 512)               0         
_________________________________________________________________
prediction (Dense)           (None, 1)                 513       
=================================================================
Total params: 2,781,861
Trainable params: 2,781,861
Non-trainable params: 0
_________________________________________________________________
_________________________________________________________________
Layer (type)                 Output Shape              Param #   
=================================================================
input (InputLayer)           (None, 50)                0         
_________________________________________________________________
embedding (Embedding)        (None, 50, 100)           1000100   
_________________________________________________________________
bidirectional_1 (Bidirection (None, 512)               731136    
_________________________________________________________________
dense_1 (Dense)              (None, 1024)              525312    
_________________________________________________________________
dense_2 (Dense)              (None, 512)               524800    
_________________________________________________________________
dropout_1 (Dropout)          (None, 512)               0         
_________________________________________________________________
prediction (Dense)           (None, 1)                 513       
=================================================================
Total params: 2,781,861
Trainable params: 2,781,861
Non-trainable params: 0
_________________________________________________________________
_________________________________________________________________
Layer (type)                 Output Shape              Param #   
=================================================================
input (InputLayer)           (None, 50)                0         
_________________________________________________________________
embedding (Embedding)        (None, 50, 100)           1000100   
_________________________________________________________________
bidirectional_1 (Bidirection (None, 512)               731136    
_________________________________________________________________
dense_1 (Dense)              (None, 1024)              525312    
_________________________________________________________________
dense_2 (Dense)              (None, 512)               524800    
_________________________________________________________________
dropout_1 (Dropout)          (None, 512)               0         
_________________________________________________________________
prediction (Dense)           (None, 1)                 513       
=================================================================
Total params: 2,781,861
Trainable params: 2,781,861
Non-trainable params: 0
_________________________________________________________________
_________________________________________________________________
Layer (type)                 Output Shape              Param #   
=================================================================
input (InputLayer)           (None, 50)                0         
_________________________________________________________________
embedding (Embedding)        (None, 50, 100)           1000100   
_________________________________________________________________
bidirectional_1 (Bidirection (None, 512)               731136    
_________________________________________________________________
dense_1 (Dense)              (None, 1024)              525312    
_________________________________________________________________
dense_2 (Dense)              (None, 512)               524800    
_________________________________________________________________
dropout_1 (Dropout)          (None, 512)               0         
_________________________________________________________________
prediction (Dense)           (None, 1)                 513       
=================================================================
Total params: 2,781,861
Trainable params: 2,781,861
Non-trainable params: 0
_________________________________________________________________
>> processing text
cleaning text
0.00% of the words are out of vocabulary and replaced with "oov"
_________________________________________________________________
Layer (type)                 Output Shape              Param #   
=================================================================
input (InputLayer)           (None, 50)                0         
_________________________________________________________________
embedding (Embedding)        (None, 50, 100)           1000100   
_________________________________________________________________
bidirectional_1 (Bidirection (None, 512)               731136    
_________________________________________________________________
dense_1 (Dense)              (None, 1024)              525312    
_________________________________________________________________
dense_2 (Dense)              (None, 512)               524800    
_________________________________________________________________
dropout_1 (Dropout)          (None, 512)               0         
_________________________________________________________________
prediction (Dense)           (None, 1)                 513       
=================================================================
Total params: 2,781,861
Trainable params: 2,781,861
Non-trainable params: 0
_________________________________________________________________
>> processing text
cleaning text
0.00% of the words are out of vocabulary and replaced with "oov"
0.46303126
_________________________________________________________________
Layer (type)                 Output Shape              Param #   
=================================================================
input (InputLayer)           (None, 50)                0         
_________________________________________________________________
embedding (Embedding)        (None, 50, 100)           1000100   
_________________________________________________________________
bidirectional_1 (Bidirection (None, 512)               731136    
_________________________________________________________________
dense_1 (Dense)              (None, 1024)              525312    
_________________________________________________________________
dense_2 (Dense)              (None, 512)               524800    
_________________________________________________________________
dropout_1 (Dropout)          (None, 512)               0         
_________________________________________________________________
prediction (Dense)           (None, 1)                 513       
=================================================================
Total params: 2,781,861
Trainable params: 2,781,861
Non-trainable params: 0
_________________________________________________________________
loading
>> processing text
cleaning text
0.00% of the words are out of vocabulary and replaced with "oov"
0.4641185
_________________________________________________________________
Layer (type)                 Output Shape              Param #   
=================================================================
input (InputLayer)           (None, 50)                0         
_________________________________________________________________
embedding (Embedding)        (None, 50, 100)           1000100   
_________________________________________________________________
bidirectional_1 (Bidirection (None, 512)               731136    
_________________________________________________________________
dense_1 (Dense)              (None, 1024)              525312    
_________________________________________________________________
dense_2 (Dense)              (None, 512)               524800    
_________________________________________________________________
dropout_1 (Dropout)          (None, 512)               0         
_________________________________________________________________
prediction (Dense)           (None, 1)                 513       
=================================================================
Total params: 2,781,861
Trainable params: 2,781,861
Non-trainable params: 0
_________________________________________________________________
loading
_________________________________________________________________
Layer (type)                 Output Shape              Param #   
=================================================================
input (InputLayer)           (None, 50)                0         
_________________________________________________________________
embedding (Embedding)        (None, 50, 100)           1000100   
_________________________________________________________________
bidirectional_1 (Bidirection (None, 512)               731136    
_________________________________________________________________
dense_1 (Dense)              (None, 1024)              525312    
_________________________________________________________________
dense_2 (Dense)              (None, 512)               524800    
_________________________________________________________________
dropout_1 (Dropout)          (None, 512)               0         
_________________________________________________________________
prediction (Dense)           (None, 1)                 513       
=================================================================
Total params: 2,781,861
Trainable params: 2,781,861
Non-trainable params: 0
_________________________________________________________________
loading
0.7928352
_________________________________________________________________
Layer (type)                 Output Shape              Param #   
=================================================================
input (InputLayer)           (None, 50)                0         
_________________________________________________________________
embedding (Embedding)        (None, 50, 100)           1000100   
_________________________________________________________________
bidirectional_1 (Bidirection (None, 512)               731136    
_________________________________________________________________
dense_1 (Dense)              (None, 1024)              525312    
_________________________________________________________________
dense_2 (Dense)              (None, 512)               524800    
_________________________________________________________________
dropout_1 (Dropout)          (None, 512)               0         
_________________________________________________________________
prediction (Dense)           (None, 1)                 513       
=================================================================
Total params: 2,781,861
Trainable params: 2,781,861
Non-trainable params: 0
_________________________________________________________________
loading
0.6847253
_________________________________________________________________
Layer (type)                 Output Shape              Param #   
=================================================================
input (InputLayer)           (None, 50)                0         
_________________________________________________________________
embedding (Embedding)        (None, 50, 100)           1000100   
_________________________________________________________________
bidirectional_1 (Bidirection (None, 512)               731136    
_________________________________________________________________
dense_1 (Dense)              (None, 1024)              525312    
_________________________________________________________________
dense_2 (Dense)              (None, 512)               524800    
_________________________________________________________________
dropout_1 (Dropout)          (None, 512)               0         
_________________________________________________________________
prediction (Dense)           (None, 1)                 513       
=================================================================
Total params: 2,781,861
Trainable params: 2,781,861
Non-trainable params: 0
_________________________________________________________________
loading
0.6847253
_________________________________________________________________
Layer (type)                 Output Shape              Param #   
=================================================================
input (InputLayer)           (None, 50)                0         
_________________________________________________________________
embedding (Embedding)        (None, 50, 100)           1000100   
_________________________________________________________________
bidirectional_1 (Bidirection (None, 512)               731136    
_________________________________________________________________
dense_1 (Dense)              (None, 1024)              525312    
_________________________________________________________________
dense_2 (Dense)              (None, 512)               524800    
_________________________________________________________________
dropout_1 (Dropout)          (None, 512)               0         
_________________________________________________________________
prediction (Dense)           (None, 1)                 513       
=================================================================
Total params: 2,781,861
Trainable params: 2,781,861
Non-trainable params: 0
_________________________________________________________________
loading
0.7547671
_________________________________________________________________
Layer (type)                 Output Shape              Param #   
=================================================================
input (InputLayer)           (None, 50)                0         
_________________________________________________________________
embedding (Embedding)        (None, 50, 100)           1000100   
_________________________________________________________________
bidirectional_1 (Bidirection (None, 512)               731136    
_________________________________________________________________
dense_1 (Dense)              (None, 1024)              525312    
_________________________________________________________________
dense_2 (Dense)              (None, 512)               524800    
_________________________________________________________________
dropout_1 (Dropout)          (None, 512)               0         
_________________________________________________________________
prediction (Dense)           (None, 1)                 513       
=================================================================
Total params: 2,781,861
Trainable params: 2,781,861
Non-trainable params: 0
_________________________________________________________________
loading
0.6847253
_________________________________________________________________
Layer (type)                 Output Shape              Param #   
=================================================================
input (InputLayer)           (None, 50)                0         
_________________________________________________________________
embedding (Embedding)        (None, 50, 100)           1000100   
_________________________________________________________________
bidirectional_1 (Bidirection (None, 512)               731136    
_________________________________________________________________
dense_1 (Dense)              (None, 1024)              525312    
_________________________________________________________________
dense_2 (Dense)              (None, 512)               524800    
_________________________________________________________________
dropout_1 (Dropout)          (None, 512)               0         
_________________________________________________________________
prediction (Dense)           (None, 1)                 513       
=================================================================
Total params: 2,781,861
Trainable params: 2,781,861
Non-trainable params: 0
_________________________________________________________________
loading
['bos dont forget that your lawmaker is back in town this week . join the resistance recess and take action to protect our health , rights , and communities eos', 'bos if enact
…
s stacked hhs with anti womens health ideologues and extremists hell bent on attacking heath care . ask azar eos', 'bos we have three questions for trumps nominee for secretary . num . do you believe people deserve access to the birth control method of their choice ? ask azar eos']
[[0.92232585]
 [0.95005023]
 [0.9995939 ]
 ...
 [0.01427287]
 [0.9729609 ]
 [0.9898661 ]]
_________________________________________________________________
Layer (type)                 Output Shape              Param #   
=================================================================
input (InputLayer)           (None, 50)                0         
_________________________________________________________________
embedding (Embedding)        (None, 50, 100)           1000100   
_________________________________________________________________
bidirectional_1 (Bidirection (None, 512)               731136    
_________________________________________________________________
dense_1 (Dense)              (None, 1024)              525312    
_________________________________________________________________
dense_2 (Dense)              (None, 512)               524800    
_________________________________________________________________
dropout_1 (Dropout)          (None, 512)               0         
_________________________________________________________________
prediction (Dense)           (None, 1)                 513       
=================================================================
Total params: 2,781,861
Trainable params: 2,781,861
Non-trainable params: 0
_________________________________________________________________
loading
_________________________________________________________________
Layer (type)                 Output Shape              Param #   
=================================================================
input (InputLayer)           (None, 50)                0         
_________________________________________________________________
embedding (Embedding)        (None, 50, 100)           1000100   
_________________________________________________________________
bidirectional_1 (Bidirection (None, 512)               731136    
_________________________________________________________________
dense_1 (Dense)              (None, 1024)              525312    
_________________________________________________________________
dense_2 (Dense)              (None, 512)               524800    
_________________________________________________________________
dropout_1 (Dropout)          (None, 512)               0         
_________________________________________________________________
prediction (Dense)           (None, 1)                 513       
=================================================================
Total params: 2,781,861
Trainable params: 2,781,861
Non-trainable params: 0
_________________________________________________________________
loading
_________________________________________________________________
Layer (type)                 Output Shape              Param #   
=================================================================
input (InputLayer)           (None, 50)                0         
_________________________________________________________________
embedding (Embedding)        (None, 50, 100)           1000100   
_________________________________________________________________
bidirectional_1 (Bidirection (None, 512)               731136    
_________________________________________________________________
dense_1 (Dense)              (None, 1024)              525312    
_________________________________________________________________
dense_2 (Dense)              (None, 512)               524800    
_________________________________________________________________
dropout_1 (Dropout)          (None, 512)               0         
_________________________________________________________________
prediction (Dense)           (None, 1)                 513       
=================================================================
Total params: 2,781,861
Trainable params: 2,781,861
Non-trainable params: 0
_________________________________________________________________
loading
_________________________________________________________________
Layer (type)                 Output Shape              Param #   
=================================================================
input (InputLayer)           (None, 50)                0         
_________________________________________________________________
embedding (Embedding)        (None, 50, 100)           1000100   
_________________________________________________________________
bidirectional_1 (Bidirection (None, 512)               731136    
_________________________________________________________________
dense_1 (Dense)              (None, 1024)              525312    
_________________________________________________________________
dense_2 (Dense)              (None, 512)               524800    
_________________________________________________________________
dropout_1 (Dropout)          (None, 512)               0         
_________________________________________________________________
prediction (Dense)           (None, 1)                 513       
=================================================================
Total params: 2,781,861
Trainable params: 2,781,861
Non-trainable params: 0
_________________________________________________________________
loading
_________________________________________________________________
Layer (type)                 Output Shape              Param #   
=================================================================
input (InputLayer)           (None, 50)                0         
_________________________________________________________________
embedding (Embedding)        (None, 50, 100)           1000100   
_________________________________________________________________
bidirectional_1 (Bidirection (None, 512)               731136    
_________________________________________________________________
dense_1 (Dense)              (None, 1024)              525312    
_________________________________________________________________
dense_2 (Dense)              (None, 512)               524800    
_________________________________________________________________
dropout_1 (Dropout)          (None, 512)               0         
_________________________________________________________________
prediction (Dense)           (None, 1)                 513       
=================================================================
Total params: 2,781,861
Trainable params: 2,781,861
Non-trainable params: 0
_________________________________________________________________
loading
_________________________________________________________________
Layer (type)                 Output Shape              Param #   
=================================================================
input (InputLayer)           (None, 50)                0         
_________________________________________________________________
embedding (Embedding)        (None, 50, 100)           1000100   
_________________________________________________________________
bidirectional_1 (Bidirection (None, 512)               731136    
_________________________________________________________________
dense_1 (Dense)              (None, 1024)              525312    
_________________________________________________________________
dense_2 (Dense)              (None, 512)               524800    
_________________________________________________________________
dropout_1 (Dropout)          (None, 512)               0         
_________________________________________________________________
prediction (Dense)           (None, 1)                 513       
=================================================================
Total params: 2,781,861
Trainable params: 2,781,861
Non-trainable params: 0
_________________________________________________________________
loading
_________________________________________________________________
Layer (type)                 Output Shape              Param #   
=================================================================
input (InputLayer)           (None, 50)                0         
_________________________________________________________________
embedding (Embedding)        (None, 50, 100)           1000100   
_________________________________________________________________
bidirectional_1 (Bidirection (None, 512)               731136    
_________________________________________________________________
dense_1 (Dense)              (None, 1024)              525312    
_________________________________________________________________
dense_2 (Dense)              (None, 512)               524800    
_________________________________________________________________
dropout_1 (Dropout)          (None, 512)               0         
_________________________________________________________________
prediction (Dense)           (None, 1)                 513       
=================================================================
Total params: 2,781,861
Trainable params: 2,781,861
Non-trainable params: 0
_________________________________________________________________
loading
_________________________________________________________________
Layer (type)                 Output Shape              Param #   
=================================================================
input (InputLayer)           (None, 50)                0         
_________________________________________________________________
embedding (Embedding)        (None, 50, 100)           1000100   
_________________________________________________________________
bidirectional_1 (Bidirection (None, 512)               731136    
_________________________________________________________________
dense_1 (Dense)              (None, 1024)              525312    
_________________________________________________________________
dense_2 (Dense)              (None, 512)               524800    
_________________________________________________________________
dropout_1 (Dropout)          (None, 512)               0         
_________________________________________________________________
prediction (Dense)           (None, 1)                 513       
=================================================================
Total params: 2,781,861
Trainable params: 2,781,861
Non-trainable params: 0
_________________________________________________________________
loading
Epoch 1/1

  32/1346 [..............................] - ETA: 1:42 - loss: 2.1231 - acc: 0.3438
  64/1346 [>.............................] - ETA: 55s - loss: 1.4044 - acc: 0.5000 
…
